artifacts/cnn/best.pt (torch, 400211 bytes, 17 tensors)

input_bn.weight f4 [7]
000000 60 0f 6e 3f 52 e8 7c 3f aa 68 70 3f b0 54 80 3f
       0.9299221 0.9879199 0.93909705 1.0025845
000010 7f 3b 85 3f 1d da 86 3f 73 ae 37 3f
       1.0408782 1.0535313 0.71750563

input_bn.bias f4 [7]
000000 3c 1c 26 be 21 de be 3c 44 af ee bd 45 d5 46 be
       -0.16221708 0.023299279 -0.11654523 -0.19417293
000010 72 41 56 bd 29 7a 80 bd d4 2a e3 be
       -0.052308507 -0.062733 -0.44368613

input_bn.running_mean f4 [7]
000000 e7 90 0c 3e f6 14 e2 3d 8c aa a5 3c f3 70 42 bc
       0.13727151 0.11039154 0.020222925 -0.0118677495
000010 c7 4d 11 40 7a 46 a2 44 00 00 00 00
       2.2703722 1298.2024 0.0

input_bn.running_var f4 [7]
000000 94 9c 8a 3d 65 85 42 3d 6c 50 16 43 c7 76 d8 42
       0.06768146 0.047490496 150.31415 108.23199
000010 90 38 7d 43 d1 38 80 4d 04 00 00 00
       253.22095 2.689009e+08 6e-45

feat.0.weight f4 [96, 7, 7]
000000 eb cf b5 3d 93 88 cb 3d 00 40 5a bd 2b 57 ce 3d
       0.08877548 0.09938159 -0.05328369 0.1007522
000010 51 6a 75 bd 4c e4 2f ba 99 52 c9 bd b8 f4 3c 3d
       -0.059915844 -0.0006709739 -0.098302074 0.04613182
000020 12 23 b2 3d 2a 54 01 be c7 ad bb 3d 6e b4 af 39
       0.086980954 -0.12629762 0.09164005 0.00033513032
000030 d3 88 a7 3d 33 4d 8c bb 38 a1 37 3d 8a 29 50 bc
       0.08180394 -0.004281664 0.044831485 -0.012705216
000040 26 16 9f 3d a6 b9 e5 3c 87 79 26 bd 2c fe 4f 3c
       0.07767896 0.028042626 -0.04064324 0.012694877
000050 de 64 99 bd bd 4e 88 bb c8 7b a0 bd 37 85 d7 3d
       -0.07489942 -0.004159777 -0.078361094 0.105234556
000060 e0 ea 08 be c6 88 e7 bd 36 77 0b bd cf c6 cf bd
       -0.13370848 -0.11305384 -0.034049235 -0.101453416
000070 c5 62 bf 3c d6 68 31 be 4d dc 17 3e 30 83 2d be
       0.023362527 -0.17325148 0.14830132 -0.16944575
000080 6d 4b d7 3d 44 8e 65 3d d4 a4 98 bd c8 70 cc 3d
       0.10512433 0.05604388 -0.074533135 0.09982449
000090 9f 7d 36 bd 12 19 0d 3e ea 2c 43 bd 26 8d 21 bd
       -0.044553395 0.13779095 -0.047650255 -0.03944125
0000a0 c6 2a b0 3d 0b a5 56 bd a4 b9 cb 3c b0 41 13 bc
       0.086019084 -0.05240349 0.024868794 -0.008987829
0000b0 ca 20 a2 bc ed fa 74 b9 23 24 26 bc 37 9a ae bc
       -0.019791026 -0.0002336313 -0.010140452 -0.02131377
0000c0 6f 07 18 bd ad cd 2e bd f8 a4 d6 bd 7b fb aa bc
       -0.037116464 -0.042676616 -0.10480684 -0.020871868
0000d0 d7 cc bb bd 3d 76 06 3e 2f a2 60 3d b9 3d 92 3d
       -0.091699295 0.13131042 0.05484217 0.07140679
0000e0 02 b3 3a 3d b6 1c 17 bc fb 7f ed 3d 6f ea e0 bd
       0.04558087 -0.009223154 0.11596676 -0.10982215
0000f0 55 1e 93 3b 94 83 c1 bd 19 4f 4a 3d c0 08 b5 bc
       0.0044897 -0.09448925 0.04939184 -0.022098899
000100 56 02 2e bc 74 f6 31 bd f2 fa 15 3d 1a dd 9e bd
       -0.010620674 -0.043447927 0.036616273 -0.077570155
000110 de 3f 20 be b5 91 e7 bd 5e fc 4e 3e a3 a8 db 3d
       -0.15649363 -0.11307088 0.20213458 0.10725524
000120 68 0f 36 3e 20 34 3f bd 57 ba db bd cd db ed bd
       0.17779315 -0.04668057 -0.10728901 -0.11614189
000130 e7 6c fb bd a2 b6 86 3c 4a 65 45 3d d4 d6 04 3e
       -0.12276631 0.016444508 0.0481923 0.12972575
000140 d2 d0 e5 bd 3d 7f 09 be 65 aa 9f 3d 0c 27 5a bd
       -0.1122147 -0.13427444 0.07796172 -0.053259894
000150 4b e0 51 3d a8 3a 29 bd 91 fb e6 3d d7 07 be bd
       0.051239293 -0.041315705 0.11278451 -0.09278839
000160 5a ec 30 be d4 38 73 3d ab c2 b4 3d bb 4a cd 3c
       -0.17277661 0.059380367 0.088261925 0.025060048
000170 d6 b9 b8 bd ab 5b 7b be 32 f0 1b b9 7c 78 68 bd
       -0.090198204 -0.24546687 -0.00014871432 -0.056755528
000180 5e aa c2 39 d8 ca a1 bd 13 21 94 3b e0 9f 05 be
       0.00037129497 -0.079000175 0.0045205443 -0.13049269
000190 9e f8 9b bd f7 65 34 3d 6b a1 f6 bb d3 79 ad bd
       -0.07615779 0.044042554 -0.0075265667 -0.08470502
0001a0 28 12 ca 3c bf c3 88 bd 56 54 d3 bd a5 c2 7a bd
       0.02466686 -0.066779606 -0.1031882 -0.061220784
0001b0 cb a7 d3 bd 25 6a 91 bd 37 86 20 3e 6f 40 43 3d
       -0.10334738 -0.071003236 0.15676199 0.04766887
0001c0 d8 55 51 3d 4e 26 1c be 88 38 85 bd 57 23 1c bd
       0.051107258 -0.15248987 -0.06504923 -0.03811964
0001d0 b6 5b 01 3d b0 ff 92 bd 5f 29 67 bd 31 2f c2 bd
       0.031581603 -0.07177675 -0.05643594 -0.09481657
0001e0 16 5e f4 3b 7d cf 15 bd 7b e0 37 bc 19 f6 09 be
       0.007457505 -0.03657483 -0.011222954 -0.13472785
0001f0 c4 fd 9d bd c1 ea 09 be d8 44 16 bd 93 fa af bd
       -0.077144176 -0.13468458 -0.03668675 -0.08592715
000200 b7 b7 19 3e 2e 1a 51 bd e2 4d 0b 3e a8 8d 9c 3d
       0.15011488 -0.051050358 0.13603929 0.07644206
000210 e3 87 c3 bd 35 2f e0 3d 0c ba 35 bc 83 8d 87 bb
       -0.09547403 0.10946504 -0.01109172 -0.0041367426
000220 f6 7b 01 be 44 cc db bd e8 b3 a4 3d 3a 0c ce bc
       -0.12644944 -0.1073232 0.08042127 -0.025152314
000230 30 d9 4e bc a5 36 3a 3c 19 75 88 3c ee 46 35 b9
       -0.012625024 0.011365567 0.016657399 -0.00017287928
000240 24 13 86 3c 8e 37 b5 3c 30 49 3c 3d df ff d4 3d
       0.016366549 0.022121217 0.045968235 0.10400366
000250 29 9b f0 3d 22 c5 ee bd 83 44 15 3d 09 6a 6e bd
       0.117483445 -0.11658694 0.03644229 -0.05820659
000260 c0 aa 3e bc 3f c5 cd bd 6a 45 e5 3d 95 50 0c be
       -0.01163739 -0.10047387 0.1119488 -0.13702615
000270 fc 3d 6e 3d 41 43 22 3d 81 40 e1 3c f4 7a c3 bd
       0.05816458 0.03961492 0.027496578 -0.09544936
000280 ba 79 ed 3d dd 3e 4e 3d ab c3 06 3d f7 a1 a8 bd
       0.11595483 0.05035292 0.032901447 -0.08234017
000290 61 d0 84 3d 83 96 2b 3d fc 3e 1a bd ff 0c cb 3d
       0.064850576 0.041891586 -0.037657723 0.09914588
0002a0 f6 04 b3 3c 8b c3 db bd 6d a7 76 bd fc 13 85 bb
       0.021852951 -0.10730656 -0.060218263 -0.00406122
0002b0 ae 0d 12 3e a0 32 c9 bb ee 17 91 bd 4b b1 ad bd
       0.14263031 -0.006140068 -0.07084642 -0.084810816
0002c0 0f 09 2a be 89 fe 01 3d bc a6 b6 3d 2d 6f 3a be
       -0.16605018 0.031736884 0.08918521 -0.18206473
0002d0 b2 49 9d 3b 98 65 35 3d 8c 5c 51 3c e9 95 ef bd
       0.004800045 0.04428634 0.012778413 -0.11698515
0002e0 f8 57 65 3d cf 69 c3 3d c6 91 91 3b 46 16 51 bd
       0.055992097 0.09541666 0.0044424264 -0.051046632
0002f0 87 eb 06 bd c9 50 ca 3d 92 f8 88 3e 3f 9f 42 3e
       -0.03293946 0.0987869 0.26752144 0.1900606
000300 c0 af e2 b9 25 11 74 bb 70 57 3a bb 58 31 32 3c
       -0.00043237023 -0.0037241664 -0.0028433464 0.010876022
000310 be 63 38 3b 79 b6 3b bc b8 ee f1 3c 71 39 26 3d
       0.0028135623 -0.011457079 0.029532775 0.040582124
000320 9a bb fc bd ec 97 46 bd dc 1a fb 3d ae 16 c1 3d
       -0.1234047 -0.048484728 0.122609824 0.09428154
000330 9f 1b f4 3c 0d 95 84 bd fe 9d 62 bd 0a 3e bc bd
       0.029798327 -0.06473742 -0.055326454 -0.091915205
000340 b0 d3 2d bc e2 23 ab 3d d4 31 7f 3d 2f 27 10 3d
       -0.010609552 0.083564535 0.06230338 0.03519362
000350 ae f3 ea bd 56 99 d1 bd d9 f2 cc bc db dd 42 3d
       -0.114722595 -0.10234325 -0.025018143 0.04757486
000360 0a 0a c8 bc 16 74 08 bc d9 90 b5 3d f8 b6 a8 bd
       -0.02441885 -0.008328458 0.08865518 -0.082380235
000370 08 e8 be bd 6d 4a cb 3d 18 35 1d bc d1 29 99 bd
       -0.093216 0.09926305 -0.009595178 -0.07478679
000380 80 67 21 be 5d 2a d2 3d 5b 62 cb 3d ad f4 cb 3c
       -0.15762138 0.102619864 0.09930869 0.024896944
000390 28 de dc bd 20 09 34 be 54 f3 18 be b7 3c 8c 3d
       -0.107845604 -0.17581606 -0.14936572 0.06847518
0003a0 0a 50 a2 3d 86 a2 33 3e f9 14 ae 3d 6b 9c cb 3c
       0.079254225 0.17542467 0.08500094 0.02485486
0003b0 bf 3b 9f bc 98 ef 20 be 94 43 18 be ac 68 92 be
       -0.019437669 -0.15716398 -0.14869529 -0.28595483
0003c0 73 84 b4 bd bc fc 02 b8 dc 45 a0 3d c4 4c 6f bc
       -0.08814325 -3.1229793e-05 0.078258246 -0.014605705
0003d0 e3 84 36 bd 3f 36 9a bd 5b 42 9c bd 06 0b 85 3d
       -0.044560324 -0.07529878 -0.07629844 0.06496243
0003e0 15 f1 85 bc aa f3 d6 3d 23 5d c6 bc 6e ad b4 bd
       -0.016350308 0.10495694 -0.024214333 -0.088221416
0003f0 ee 25 47 bc 8b 2c 2f bd 50 44 47 bd 52 3e 04 be
       -0.012155039 -0.04276709 -0.048649132 -0.12914398

feat.0.bias f4 [96]
000000 6b 43 58 38 39 15 57 39 50 f0 55 b5 0a ca 17 3b
       5.15612e-05 0.00020511904 -7.9698384e-07 0.0023161196
000010 db d2 10 b9 25 b1 6a 38 60 4d 22 39 e7 51 2c 38
       -0.0001381146 5.5954926e-05 0.00015478348 4.1084273e-05
000020 6b 17 ec ba ba 83 b3 39 47 b9 c3 ba 75 88 19 ba
       -0.001801235 0.00034239684 -0.0014932536 -0.00058568205
000030 af 19 11 b8 d7 9d ac 37 53 f2 21 3a 54 ed 4b 3a
       -3.4594614e-05 2.0577498e-05 0.0006177772 0.00077792
000040 f5 98 c7 3b f8 6a ae 39 b9 ee a4 ba e2 c8 f7 b7
       0.006091232 0.00033267564 -0.0012583352 -2.9538238e-05
000050 48 71 1c b9 d9 12 95 3a f2 d1 f8 b7 db 09 08 ba
       -0.0001491952 0.0011373415 -2.9661667e-05 -0.0005189457
000060 98 c3 c9 b9 f8 ee a6 ba 21 18 4d bb c7 9b 28 3b
       -0.00038483436 -0.0012736013 -0.00312949 0.0025727616
000070 d3 9e 9a 38 56 e3 08 39 b4 6a bd ba df c9 11 bb
       7.3728756e-05 0.0001305466 -0.0014451356 -0.0022245569
000080 9b a5 9a 38 75 07 8b b6 1c c4 31 3b bb 81 df b9
       7.374139e-05 -4.143391e-06 0.0027124947 -0.0004263053
000090 67 f2 16 3b 34 be 0f 39 ed 1c b8 3a 51 d5 35 b8
       0.0023032667 0.00013708399 0.0014046706 -4.335243e-05
0000a0 d5 dd 14 39 17 a7 56 ba 63 73 86 ba 9f 1b 5a ba
       0.00014197019 -0.00081883505 -0.0010257777 -0.0008320156
0000b0 9e 2a 0d 3b 86 34 3e 39 0a ad 8c 38 7e 1e ab 39
       0.0021540294 0.00018139379 6.707951e-05 0.0003263838
0000c0 38 77 08 38 d5 cb 95 37 c3 de ee 3a 7c d6 b1 b9
       3.2535958e-05 1.78571e-05 0.0018224347 -0.00033919874
0000d0 dc 6f a6 37 af 6f 65 3a a2 29 81 36 d6 e3 21 b9
       1.984083e-05 0.0008752299 3.8493463e-06 -0.00015439032
0000e0 07 a7 dc 39 bb a9 ac b9 ec ce a1 b9 b6 33 f9 b8
       0.00042086115 -0.00032932856 -0.00030862482 -0.00011882877
0000f0 60 9e 00 39 3e 10 17 36 d4 46 bf 37 89 85 19 3b
       0.0001226603 2.2510208e-06 2.2801956e-05 0.002342554
000100 23 72 b5 36 35 06 2e 39 84 8e ba ba a1 b1 b0 b9
       5.4075076e-06 0.00016596245 -0.0014233147 -0.0003370168
000110 0d 2c 04 bb 7b 40 92 37 89 d0 65 39 d9 8d 15 bb
       -0.0020167858 1.7434582e-05 0.00021916827 -0.0022820143
000120 e5 ec 48 b8 a6 30 a1 ba f6 7a 82 38 0e 42 b1 35
       -4.790434e-05 -0.0012297824 6.221786e-05 1.3206752e-06
000130 96 27 ac 39 6f bd 1e 3b 0b a6 c0 ba 29 a8 f3 38
       0.0003283589 0.0024221798 -0.0014697922 0.00011618465
000140 59 cf 35 b9 f8 92 af b9 6f b7 cf 3a 59 f3 6a ba
       -0.00017338748 -0.000334881 0.0015847514 -0.0008962653
000150 7b b1 14 39 82 b7 a0 ba ea 57 93 b6 8a 6a 81 3b
       0.00014180497 -0.0012261721 -4.391176e-06 0.003949468
000160 57 dd 42 b8 0d 8b 06 3b 0c 99 bd b8 f0 f0 75 b6
       -4.6459343e-05 0.0020529658 -9.0407295e-05 -3.664809e-06
000170 66 87 8a 37 4f f4 30 bb ad 5c a8 ba 78 6b 86 39
       1.6513932e-05 -0.0027001088 -0.0012845002 0.00025638542

feat.1.weight f4 [96]
000000 2d a6 6e 3f 32 6a 80 3f 53 e0 75 3f e4 63 77 3f
       0.93222314 1.0032408 0.96045417 0.96636796
000010 ab 01 83 3f e3 32 7d 3f 2d b8 66 3f 2f 82 7a 3f
       1.0234884 0.9890577 0.9012478 0.97854894
000020 56 dc 7e 3f 96 4f 7f 3f d5 f3 70 3f 94 69 80 3f
       0.99554956 0.99730814 0.9412206 1.003222
000030 2e 11 85 3f 66 2b 7a 3f 09 9d 68 3f 71 60 7f 3f
       1.0395868 0.9772247 0.90864617 0.9975653
000040 9c 40 81 3f b2 b0 78 3f b2 a3 7e 3f e2 4e 7c 3f
       1.0097842 0.97144616 0.9946853 0.98557866
000050 f9 47 88 3f fe 8d 85 3f f7 f7 71 3f d5 c1 78 3f
       1.0646964 1.0433958 0.9451899 0.97170764
000060 be 03 6e 3f da 43 7b 3f 1b 5b 84 3f 05 98 73 3f
       0.9297446 0.9815041 1.0340303 0.9515384
000070 02 2d 80 3f 6a b6 7c 3f e2 0f 7c 3f e3 73 7b 3f
       1.0013735 0.9871584 0.98461735 0.98223704
000080 d4 a1 80 3f 37 48 78 3f 1b ae 7f 3f d0 10 7a 3f
       1.0049386 0.9698519 0.9987504 0.97681904
000090 b2 fe 79 3f 44 45 6d 3f ef 7f 75 3f 29 fb 78 3f
       0.9765426 0.92683816 0.95898336 0.9725824
0000a0 79 1b 7e 3f 17 22 7f 3f c4 1f 7a 3f 3a 71 7a 3f
       0.9926067 0.9966139 0.9770472 0.9782902
0000b0 59 94 7f 3f da fd 7a 3f d5 a1 6c 3f 49 b7 77 3f
       0.99835736 0.98043597 0.92434436 0.96764046
0000c0 8f e0 71 3f bb af 6f 3f cf d8 73 3f 6c 00 82 3f
       0.94483274 0.9362752 0.952527 1.0156379
0000d0 49 9c 76 3f 41 56 64 3f 11 b3 73 3f d7 e1 7a 3f
       0.9633222 0.89194113 0.9519511 0.98000854
0000e0 b6 74 70 3f e1 92 78 3f 40 65 7a 3f cd b2 75 3f
       0.93928087 0.9709912 0.97810745 0.95975953
0000f0 f2 10 7b 3f c0 3e 7a 3f 07 60 7a 3f 8e a1 7c 3f
       0.9807273 0.97752 0.97802776 0.9868401
000100 b7 d8 6d 3f 8f ba 6f 3f 18 7f 86 3f 6c 29 70 3f
       0.92908806 0.9364404 1.0507536 0.93813205
000110 a2 61 7a 3f 2f 4e 7e 3f 21 61 7b 3f 6f df 79 3f
       0.97805226 0.9933805 0.9819508 0.9760656
000120 cd 02 86 3f dc 85 78 3f 36 37 79 3f 32 1e 77 3f
       1.0469605 0.97079253 0.9734987 0.9653045
000130 7a 14 7d 3f 03 d7 78 3f 81 c1 73 3f db 56 81 3f
       0.9885937 0.9720308 0.9521714 1.0104631
000140 ef 1e 81 3f 34 71 78 3f 61 43 79 3f 82 41 7f 3f
       1.0087565 0.97047734 0.9736844 0.9970933
000150 90 2a 7a 3f 2c f1 84 3f 62 9b 77 3f e2 e8 83 3f
       0.97721195 1.03861 0.9672147 1.0305445
000160 c7 b7 71 3f af ab 77 3f c7 a7 7e 3f 41 cc 7c 3f
       0.94421047 0.96746343 0.9947476 0.98749167
000170 cd 03 79 3f 16 1b 7c 3f 4d d9 72 3f 94 39 75 3f
       0.97271425 0.9847883 0.94862825 0.9579098

feat.1.bias f4 [96]
000000 6c 14 0d bc 93 b5 24 3c b2 7e 5e bc 6e 54 8b bc
       -0.008610826 0.010053056 -0.013580011 -0.017008033
000010 0f 1c 58 ba 1c 45 cf bc 0e a4 23 bc 22 6a 21 bd
       -0.0008243927 -0.025301509 -0.009987844 -0.039407857
000020 e2 4d 89 3c bd c6 a6 3c 42 15 13 bc 04 5a 03 bd
       0.01676077 0.020358438 -0.008977236 -0.032068267
000030 a9 01 cc 3c 79 eb 97 3c 20 fa f1 bc 0c df b4 3c
       0.024903135 0.0185449 -0.029538214 0.022079013
000040 b2 b4 5d bb c0 f5 84 bc 6d 73 3b 3c 53 73 d0 bc
       -0.0033829627 -0.016230464 0.011441094 -0.025445616
000050 55 36 62 bc e7 5e 3b bd fe 96 25 bc a9 68 83 3c
       -0.013806899 -0.045744803 -0.0101068 0.016041117
000060 3d 23 78 bb 8d bb a9 bc 04 b9 f9 bc cb 8d 7d 3b
       -0.00378628 -0.020719314 -0.03048373 0.0038689252
000070 9f a3 25 3d ee 51 e8 ba 5b 8c f3 bc f8 41 77 bb
       0.040439244 -0.0017724612 -0.029730013 -0.003772853
000080 e1 9a ee 3c 8a 77 a6 bc b2 ba 0d bd 0d 00 78 3c
       0.029126586 -0.020320673 -0.034601875 0.015136731
000090 0a fb 02 3d 93 d5 e5 ba 08 25 2f bd cb a2 bb bc
       0.03197769 -0.0017534964 -0.042759925 -0.022904774
0000a0 d3 67 e9 bc a8 4b d8 bb 60 43 cc 3c e9 7c b1 bc
       -0.02849189 -0.006600816 0.02493447 -0.021666007
0000b0 8f e2 f6 bc 45 99 23 3c 26 f6 5c bb e6 d0 41 3c
       -0.030137328 0.009985273 -0.0033716052 0.01182959
0000c0 ea 3c b1 bb d9 dd c8 bc a6 bc 66 bc b8 d8 a2 bc
       -0.005408873 -0.024519848 -0.014083063 -0.01987873
0000d0 08 64 53 bc 61 3c 40 bc 97 74 da b9 3d 23 51 bb
       -0.012902267 -0.011733145 -0.00041667066 -0.0031911873
0000e0 06 08 11 bd d2 4c ff bc 79 c7 c0 ba 36 6e c3 3b
       -0.035408042 -0.03116456 -0.0014707885 0.005964066
0000f0 13 22 c9 bc 90 97 06 bd ff 1a b7 3b 4b 9d 2b bd
       -0.02455238 -0.032859385 0.005587935 -0.041898053
000100 79 53 5f bc c5 8a 4d bd 78 11 07 3d 26 f1 eb bc
       -0.013630741 -0.05018117 0.032975644 -0.028801512
000110 f5 82 25 3c b2 5d 75 3c 33 c9 07 bc 59 e7 20 3a
       0.010102023 0.014975952 -0.008287716 0.0006137989
000120 59 3e b1 3b 91 36 34 bc 43 07 5c bb 16 96 6e bc
       0.0054090437 -0.010999338 -0.0033573664 -0.01456215
000130 ce 70 d2 3a 78 4f 80 bc 79 51 bc 3b ac 82 d5 3c
       0.0016055347 -0.015662894 0.005747017 0.026063286
000140 ad 2e 92 bc 10 6b 0e bc 01 3e 63 bd 09 c2 0d 3c
       -0.017844522 -0.008692518 -0.055479053 0.008652219
000150 b8 63 13 bd 38 e3 9b bc e8 30 ca 3c 45 5b e9 bb
       -0.03598377 -0.019029245 0.024681523 -0.007121476
000160 d6 de ee 3a 2c 1b d5 bb d1 3e 97 bc 1d 46 0c bd
       0.0018224369 -0.0065034833 -0.01846257 -0.034246553
000170 c8 53 27 bc 99 06 1c bd c4 d0 66 bc 3e cf 90 3c
       -0.010212846 -0.03809223 -0.01408786 0.017676946

feat.1.running_mean f4 [96]
000000 63 99 b1 3d 6d 56 61 3e 91 64 e4 3d 0f 6e 63 be
       0.08671834 0.22005625 0.11151994 -0.22209953
000010 89 e8 81 3e ab e9 37 be 16 09 17 3d 72 11 f9 3e
       0.25372723 -0.17960231 0.0368739 0.48646122
000020 91 32 9a be 56 0f 40 be 24 99 28 3b fe cf 49 bc
       -0.30116704 -0.1875585 0.0025726045 -0.012317656
000030 a9 b7 18 3e 56 57 1f 3e c2 2c 96 3e 96 79 4a 3e
       0.14913811 0.1556066 0.29331023 0.19772944
000040 e2 35 0e be 09 6f fa bd 51 82 af bd 45 56 e7 3c
       -0.13887742 -0.122282095 -0.08569778 0.028239379
000050 f3 d0 87 3e 60 3c 5f 3e 7f c6 ba 3d 9e 4e 12 3e
       0.26526603 0.21800375 0.091198914 0.14287803
000060 86 cc 10 be ae 8e a3 bd 69 44 eb be 7a 95 26 3e
       -0.1414052 -0.07986198 -0.4595063 0.16267958
000070 fa e1 b3 3e 10 1f 62 be b3 34 8a 3e d8 62 29 be
       0.35133344 -0.22082162 0.2699333 -0.16541612
000080 a5 d9 4f be 09 1d d7 3d 7b b7 e1 be 11 31 b8 be
       -0.20297869 0.10503585 -0.44085297 -0.35974935
000090 e7 59 af 3e d5 ba 1d be b0 ca e4 bc 5b 3c 8f 3b
       0.34248278 -0.15403302 -0.02792868 0.0043712086
0000a0 6b 50 04 3f 80 a7 43 3e 9a 8b 45 bd 76 94 a6 be
       0.5168521 0.19106865 -0.048228838 -0.32535142
0000b0 0e 3c e7 bd 2d 12 2e be 66 e2 2c 3e 52 53 87 be
       -0.112907514 -0.16999121 0.16883239 -0.26430756
0000c0 ec b3 ea 3c 5c cc 7b bd 38 6b 14 3e 54 11 d9 3d
       0.028650247 -0.06147419 0.14494026 0.10599008
0000d0 c1 01 85 bb 77 f6 32 3c 9c 5c 6a 3e a4 29 61 be
       -0.004059047 0.01092302 0.2288689 -0.21988541
0000e0 a1 92 56 3e bb 1d c3 3d d2 b3 7e be 42 c4 09 be
       0.20954372 0.09527155 -0.24873284 -0.13453773
0000f0 8a f1 3c 3d d6 4c c6 bc 34 10 32 3e d8 8b 43 be
       0.046128787 -0.02420656 0.17388994 -0.19096315
000100 4e ae 3e 3a 4e a3 cb be 56 91 3d be 05 33 26 be
       0.0007273898 -0.3977303 -0.18512473 -0.162304
000110 f4 cf 6b be 2a 50 c1 3e 28 11 30 bb 82 04 b9 3d
       -0.23028547 0.37756473 -0.0026865695 0.09034063
000120 a3 74 8e 3e f6 f0 99 3e 92 89 0f 3d 71 df 25 3e
       0.27823362 0.3006665 0.035043307 0.16198517
000130 2b 30 b0 3e 2f 01 6c bd aa ed 60 3e 3e a8 3e 3e
       0.3441175 -0.057618316 0.21965662 0.18618867
000140 c2 86 39 be a3 ad 90 3e 6e 92 a8 be e0 6b 77 be
       -0.18117812 0.28257474 -0.32924217 -0.24162245
000150 69 6a 9b 3d 0b 06 dd bd c4 b8 9c be 65 b6 9b be
       0.075886555 -0.10792168 -0.30609715 -0.30412593
000160 b0 74 23 3e b2 a2 d0 bd 71 5b a4 be 5a 3a 0d 3f
       0.15962481 -0.10187282 -0.32101014 0.5516716
000170 b8 bf d6 3c d0 be 4d 3e 64 54 83 3d 19 41 ad bd
       0.026214465 0.2009232 0.064125806 -0.08459682

feat.1.running_var f4 [96]
000000 c0 4b ae 3e e8 2c a1 3e 82 76 ab 3e 35 98 66 3e
       0.34042168 0.31479573 0.33488852 0.22519
000010 24 41 90 3e 32 52 84 3e 8b be 96 3e 17 49 bb 3e
       0.28174698 0.2584396 0.29442248 0.365792
000020 13 d7 63 3e d5 10 4d 3e 74 45 72 3e 3c 00 b2 3e
       0.22250013 0.20025952 0.23659307 0.34765804
000030 d4 76 8f 3e 69 3e 9d 3e 43 aa ad 3e 65 8c 1a 3e
       0.28020346 0.30711678 0.33918962 0.15092619
000040 c1 83 66 3e 3e 3e d9 3e df 36 44 3e 26 2c a0 3e
       0.22511198 0.424303 0.19161557 0.31283683
000050 93 0a 2d 3d 60 08 8c 3e d6 b9 81 3e 94 bb 0b 3e
       0.042246412 0.2735014 0.25337094 0.13645774
000060 ee fd 95 3e 37 5d a9 3e b2 5f d4 3d 2f e6 48 3e
       0.29295295 0.3307893 0.10369815 0.19619058
000070 8e cc 7d 3e 58 55 49 3e 98 c7 84 3e ac 5e 68 3e
       0.24785063 0.19661462 0.25933528 0.22692364
000080 9e 1b ff 3d 77 b0 4a 3e 0d 95 4c 3e a0 27 83 3e
       0.124564394 0.19793878 0.19978733 0.2561617
000090 79 36 84 3e 75 dd 72 3e 43 81 b9 3e 85 e1 8b 3e
       0.2582281 0.23717292 0.3623143 0.27320495
0000a0 82 ed 06 3e 6c 03 80 3e 6f 6b 34 3e 5f b5 01 3f
       0.1317654 0.2500261 0.17619108 0.50667375
0000b0 09 2f 6c 3e b0 f2 67 3e 4b 90 7b 3e 5a 23 b9 3e
       0.23064817 0.22651172 0.24566762 0.36159784
0000c0 92 20 9c 3e 85 67 68 3e a2 f0 bf 3e 77 af 51 3e
       0.304936 0.2269574 0.37488276 0.20477091
0000d0 4b aa 3a 3e 91 66 65 3e 68 27 36 3f 33 ec 59 3e
       0.18229024 0.22402407 0.7115388 0.21281509
0000e0 cc 29 c1 3e d8 22 75 3e df 33 79 3e 8c ae 3a 3e
       0.377272 0.23939073 0.24336194 0.18230647
0000f0 1e 2d 6d 3e f2 56 8b 3e c2 e7 3e 3e 53 25 55 3e
       0.23161742 0.27214772 0.18643096 0.2081502
000100 f0 ff df 3e 66 96 77 3e a8 45 c5 3e a3 7b 37 3e
       0.43749952 0.24178466 0.38529706 0.17918257
000110 a3 ce 35 3e aa 61 94 3e fb 50 ab 3e a4 2b 20 3e
       0.17754607 0.28980762 0.3346022 0.15641648
000120 8e 5b a4 3e 3f 7f 89 3e b0 1d 9b 3e 3f 6c 99 3e
       0.321011 0.26854894 0.30296087 0.29965398
000130 0c 72 82 3e ab 3c c5 3e 35 9e 88 3e be cc 5f 3e
       0.25477636 0.38522848 0.26683202 0.21855447
000140 24 2c 08 3e f0 1f bb 3e a6 3f 3e 3e 3c 16 64 3e
       0.13298088 0.36547804 0.18578967 0.22274107
000150 6a 4b 5d 3e 85 fc 85 3e 51 c9 84 3e 27 7e e1 3d
       0.216108 0.2616922 0.25934842 0.1101039
000160 6f b2 94 3e 6c 14 df 3e 89 16 8e 3e 04 23 00 3e
       0.29042384 0.43570268 0.27751568 0.12513357
000170 97 78 c6 3e 5a 90 a6 3e c2 7c 65 3e 29 98 65 3e
       0.38763878 0.32532007 0.22410873 0.22421326

feat.3.weight f4 [192, 96, 5]
000000 d2 2c f5 bc 20 45 ac 3c 15 39 0e bc dc e1 2a 3c
       -0.029928599 0.021029055 -0.008680602 0.010429826
000010 c2 25 0c 3d e5 6d 86 3c db d6 27 3d 7e 25 24 3d
       0.034215696 0.016409824 0.040976387 0.040074818
000020 03 d8 b7 ba cd c5 64 3d 01 44 40 bd 0f f4 f4 3c
       -0.0014026169 0.0558527 -0.046939854 0.029901532
000030 91 a3 c1 bc 88 b4 30 bc 9c e7 9c 3c da f2 d6 3c
       -0.023637565 -0.0107852295 0.019153409 0.026238848
000040 89 5a 32 3d 74 07 64 bc e1 8d 16 bc 6b bb 34 3d
       0.043543372 -0.013917793 -0.0091891 0.04412405
000050 16 62 70 3c 27 17 17 3d 60 b6 14 3d b3 34 44 3d
       0.014671823 0.036887314 0.03630674 0.04790182
000060 16 25 20 3c bb 0b b5 bc 71 10 44 bd 66 c8 26 bd
       0.009774467 -0.02210032 -0.047867242 -0.04071846
000070 1b 21 05 bd a9 ab 48 bd 3a df 97 3c 0e dd 71 3c
       -0.032502275 -0.048991833 0.01853906 0.014762176
000080 bf c4 c5 bc ba 99 ce bc 4e a9 06 3d 77 53 1f bd
       -0.024141667 -0.025219787 0.032876305 -0.038897958
000090 43 22 5e 3c a8 29 4c 3c 7c ec 03 bd 42 bb 23 bd
       0.013557973 0.0124611035 -0.03220795 -0.039973505
0000a0 d0 de 5a 3d f3 e6 02 bc 14 c5 85 3d 65 4d 99 3c
       0.053435147 -0.007989633 0.0653173 0.018713662
0000b0 8d 2a b0 3b a9 66 bd 3a 8d c2 c7 bc a0 f9 a8 3c
       0.005376166 0.0014450151 -0.024384761 0.020626843
0000c0 d3 e4 4f bd 0a 5a b9 bc 1d fe a4 bb c2 78 ad 3c
       -0.050755333 -0.022625942 -0.0050351755 0.021175746
0000d0 d3 fd 85 3b ec 09 4c 3c 13 98 6f 3c 63 ec 3c 3d
       0.004089096 0.012453537 0.01462366 0.046123873
0000e0 e8 3d 7b bb 9f d8 0e bc dc 4c ae 3b 84 8c df 3c
       -0.003833646 -0.008718639 0.005319221 0.027288683
0000f0 58 f2 83 3c d3 72 14 3d 3a 6a 4d 3d 17 72 0e 3d
       0.01610677 0.036242317 0.050150134 0.034776773
000100 e0 33 1d 3d a1 1a 9d 3c 44 16 e1 3c 17 64 f4 bb
       0.03837955 0.019177737 0.027476437 -0.0074582207
000110 10 8a fc bb 7c c6 b4 3c 1e 4c 4e bb 90 7e e7 3c
       -0.007706888 0.022067301 -0.0031478475 0.028258592
000120 89 5a 1d bb 3d 82 a0 bc b0 34 0b bd 3e 8f e2 bc
       -0.0024010262 -0.019593352 -0.033985794 -0.027656194
000130 01 96 88 3c 96 d5 52 3d 6c e3 99 3c 8c 86 d8 3b
       0.01667309 0.051473223 0.018785201 0.006607836
000140 97 5c 22 3d c3 11 aa 3b 4a df 4e 3d c3 22 46 bc
       0.03963908 0.0051901056 0.050505914 -0.012093249
000150 48 0f 0f 3c 44 aa 13 bd e6 8b 81 bc 64 6c 24 39
       0.008731671 -0.03605105 -0.01581378 0.00015680637
000160 bf d6 16 3c 1e 49 02 bd 68 b3 aa bc fd 1c 85 b9
       0.009206473 -0.03180801 -0.0208375 -0.00025389335
000170 2f 0c b2 bc 01 d4 82 bc f3 03 3f 3c d4 b5 08 bd
       -0.021734325 -0.015970232 0.011658656 -0.03337653
000180 68 fa ca 3a 1b 79 44 3c 99 99 56 ba a0 a6 69 bc
       0.0015486004 0.011991764 -0.000818634 -0.014260918
000190 f9 d4 8a bd 2a 7e 7b bd e7 f8 14 bd 93 93 58 bc
       -0.067789026 -0.061399616 -0.036370184 -0.013218778
0001a0 e5 e4 3a bc ba 42 72 3d be 0d 83 3d b5 00 d3 3c
       -0.011407112 0.059145667 0.063991055 0.025757173
0001b0 8a c1 c3 3c 4d 1a b9 3c fc 57 8a bc 8b ac de 3c
       0.023895998 0.022595549 -0.016887657 0.027181884
0001c0 bf f4 37 3c 09 1d 12 3c bf 44 3b bc ab ad b4 bc
       0.011227786 0.008918055 -0.011429965 -0.022055468
0001d0 c4 23 09 bd 4b f4 10 bd ab 3d 38 3c e1 18 06 bd
       -0.033481374 -0.035389226 0.011245172 -0.03273857
0001e0 36 1d 2c bc a0 e9 52 bd 0d 60 d4 bc cf 75 e0 3c
       -0.010505011 -0.051492333 -0.025924707 0.027399926
0001f0 7f 80 db 3c 72 39 a6 ba 98 ca cc 3c 4a 2d 03 3d
       0.02679467 -0.0012681915 0.024998948 0.032025613
000200 af 27 bf 3c ea 93 17 bd fd 2a 4e bd 62 87 ab bd
       0.023334352 -0.037006296 -0.050333966 -0.083754316
000210 b8 1a 7e bd cc 1c ad bb b5 7a 42 bd 5a 3b ac bc
       -0.0620372 -0.005282974 -0.047480304 -0.021024395
000220 77 9c bb bb b6 ee 05 3d 01 f6 1d bd 46 af b2 bc
       -0.005725439 0.032698356 -0.038564686 -0.021812093
000230 88 ad 32 bc 83 0c 00 3d a5 3f dc 3c d7 90 d6 3c
       -0.010905631 0.031261932 0.026885817 0.026192112
000240 c4 cd fe 3c c8 af 38 bb 82 9e 0a 3d 8e d3 f9 3c
       0.031103976 -0.0028180946 0.03384257 0.030496385
000250 a5 54 0c 3d 19 15 60 3c 0a 4a fa bb 44 fc 80 bc
       0.03426041 0.013676905 -0.0076382207 -0.01574529
000260 be d7 01 bd cc 8c 77 3c 3b e7 01 bd b8 79 1a 3b
       -0.03169989 0.015109252 -0.03171466 0.0023571085
000270 08 1e 04 3d 98 0d 94 3c cb 71 a1 bc 29 33 a6 bc
       0.032255203 0.018072888 -0.019707581 -0.020288067
000280 11 e3 12 3c 0d b8 15 3d 4e 11 43 3c e7 3c 5c 3d
       0.00896527 0.036552478 0.011905981 0.05376902
000290 ed 1e a7 3c 1f 5f dc bc fb dd fc bc 5c f5 35 3d
       0.020400489 -0.026900826 -0.030867567 0.044423446
0002a0 11 7c 05 3c 54 8b 29 bc ba 61 88 bc 9e 66 81 3d
       0.0081472555 -0.01034816 -0.016648162 0.06318401
0002b0 c8 a7 52 3d 12 fa db 3b f4 fa f9 38 db fd b1 3c
       0.05142954 0.0067131603 0.00011919989 0.021727493
0002c0 25 88 49 3c 0b 92 07 bc 7b b2 50 bd 72 22 17 3c
       0.012300526 -0.008274565 -0.050951462 0.009224521
0002d0 66 55 26 bc c0 aa c2 3b 53 7a d4 bc ce 33 00 bd
       -0.0101521965 0.005940765 -0.025937235 -0.031299405
0002e0 c0 db 31 bd c4 64 fc 3c 3f d8 29 3d 19 7b 16 bd
       -0.04342246 0.030809768 0.041465994 -0.03673849
0002f0 c3 b6 10 3d 45 95 d1 bc 6c 21 34 bd 71 f7 66 3c
       0.035330545 -0.025583873 -0.043977186 0.014097081
000300 c0 14 a7 3c 47 f7 b9 3c d6 9b 28 3b 7c bd e5 3c
       0.020395637 0.022700919 0.002572765 0.028044455
000310 70 6c 66 bd 67 6b f7 3b 77 2f 3f bc e9 4d ec 3a
       -0.056255758 0.007550645 -0.011669031 0.001802859
000320 68 98 bd 3b 7e 15 3a bd fe 08 97 3c 2c 74 b0 bc
       0.0057859905 -0.045430653 0.018436905 -0.02153977
000330 31 83 6c 3b e8 47 84 bc 8b 2a ca bb 88 4b ac 3c
       0.0036088938 -0.016147569 -0.0061696223 0.02103211
000340 03 a3 03 bd 1e 21 36 bd 54 48 0a 3d 3c c7 9f 3b
       -0.032137882 -0.044465177 0.033760384 0.0048760455
000350 ff 31 63 3c d6 7f f4 3c 38 2f c8 3b 83 50 16 3d
       0.0138669005 0.029846113 0.0061091445 0.036697876
000360 94 1c ef 3c 85 49 94 bb 1a 5b 82 3c b2 b1 54 3b
       0.029188432 -0.004525366 0.015912581 0.0032454547
000370 bd eb 36 3d 34 5a 27 3d 99 d5 84 bc bd 83 d6 3c
       0.04465841 0.04085751 -0.016215133 0.026185865
000380 fc 38 1c 3d 94 b4 25 3d bd 73 2d 3d 51 ff 1a 3d
       0.038140282 0.040455416 0.042346705 0.037841145
000390 5d b0 9e 3b 63 20 06 3c 4d 32 d9 bc f6 44 10 3d
       0.0048428015 0.0081864325 -0.026513243 0.035222016
0003a0 f5 26 ed 3c c3 ef e9 bc e7 fe b1 bc d7 dd 1f 3d
       0.02894924 -0.02855671 -0.021727992 0.039029922
0003b0 b1 d5 1d bd 03 26 82 3c 03 91 27 bd 2d 67 81 bc
       -0.03853387 0.015887266 -0.04090978 -0.015796268
0003c0 79 ef b6 bc 46 77 dd 3c 1a c4 6f bc 3c cc df 3c
       -0.022330986 0.027034413 -0.014634157 0.027319066
0003d0 4c af 09 3b 3b 0d dc 3c e1 01 1f 3c 53 ef 3d 3c
       0.0021009026 0.026861778 0.009705038 0.011592704
0003e0 a4 f5 d7 3c 8c 8c 41 bb 3f 0f 8d bc c2 8a 1e 3c
       0.026362248 -0.0029533235 -0.017219184 0.009676637
0003f0 fe 67 21 3d 3c fd 93 bc 7c 30 19 bd 8f 09 73 bd
       0.039405815 -0.018065087 -0.037399754 -0.059335288

feat.3.bias f4 [192]
000000 44 55 da b9 5a fb 7c 39 17 15 33 3a de ce 27 ba
       -0.00041643728 0.00024126229 0.0006831451 -0.000640137
000010 ab 79 e2 37 58 ed b1 38 87 33 46 b9 9c a7 1c 39
       2.6997956e-05 8.4842264e-05 -0.00018901947 0.00014939759
000020 ff 60 9a 38 1c 21 1b b9 a3 9a d1 b9 54 05 bc b9
       7.361359e-05 -0.00014794286 -0.000399788 -0.00035862124
000030 da 69 44 39 52 18 46 ba 35 8d 9c b8 ed ab 12 b8
       0.0001873145 -0.00075567246 -7.4649615e-05 -3.496923e-05
000040 f4 ef 3a 39 36 22 77 b8 5f de e3 38 7f 9c 2d b9
       0.00017827732 -5.892125e-05 0.00010865623 -0.00016556865
000050 ee f6 15 39 b5 8c 30 39 07 34 0d b9 93 17 04 b9
       0.00014301736 0.00016837085 -0.0001346619 -0.00012597283
000060 2c 64 bc 39 0c ae 54 b6 b1 24 02 39 03 69 02 ba
       0.00035932788 -3.169177e-06 0.00012411435 -0.00049747544
000070 25 d1 e1 b8 05 b2 9d 39 64 d3 ac 38 ce d5 0d 3a
       -0.00010767792 0.00030078008 8.240974e-05 0.00054105825
000080 29 c9 d1 38 b1 a5 7d 39 e7 99 93 b9 40 13 9e 39
       0.000100033656 0.00024189685 -0.0002815269 0.0003015045
000090 5d 22 a7 38 44 cb 0d b8 a6 24 ab b7 a0 9e 10 39
       7.969581e-05 -3.3806326e-05 -2.0401854e-05 0.00013792003
0000a0 37 51 f1 38 79 46 9f b9 c6 46 26 ba e6 e6 8d b8
       0.00011506903 -0.0003037935 -0.00063429435 -6.766412e-05
0000b0 2b 32 ba 38 94 25 24 b8 f0 e5 72 b9 1f c4 49 3a
       8.878516e-05 -3.9135644e-05 -0.00023164577 0.0007696766
0000c0 a9 a0 9b b9 d5 28 af 39 5e 02 30 b9 3a 85 01 3a
       -0.00029683605 0.00033409023 -0.0001678555 0.0004940812
0000d0 4c c7 3d 36 e8 a9 94 38 6a 19 38 3a 33 6d 46 3a
       2.82792e-06 7.0888374e-05 0.000702283 0.00075693725
0000e0 7e df 05 b9 94 a9 bd b7 be 22 58 b9 2f 8f fb b9
       -0.00012767126 -2.2609522e-05 -0.00020612308 -0.0004798113
0000f0 62 00 43 b9 fd 22 55 39 fc fc 84 b9 45 ca 37 b9
       -0.00018596792 0.00020326297 -0.0002536549 -0.00017527591
000100 d1 a9 56 39 e1 43 e7 39 26 3c 53 39 a6 89 34 b9
       0.00020471892 0.00044110327 0.00020144935 -0.00017217416
000110 00 04 00 b8 ee ba d8 39 07 96 12 b9 ad 20 c9 b9
       -3.0521303e-05 0.00041338004 -0.00013979535 -0.00038362053
000120 db 89 e0 37 a4 a6 b5 b8 f2 92 6e 3a c5 18 82 b8
       2.6767075e-05 -8.661792e-05 0.0009100876 -6.203497e-05
000130 ee c6 cb b9 65 36 68 b9 66 62 e7 37 42 8e 31 3a
       -0.0003886739 -0.00022145508 2.7583166e-05 0.0006773212
000140 d9 bc 54 39 b4 ef 38 b9 78 2a 9b 39 99 26 ea 39
       0.00020288247 -0.00017636904 0.00029595545 0.00044660716
000150 e0 45 8f 39 24 67 fa b8 a0 f1 98 38 ec cf 81 b8
       0.00027327146 -0.000119401404 7.292931e-05 -6.189928e-05
000160 c8 da b4 39 f4 53 10 3a a0 7d 02 39 fa 52 19 b9
       0.0003449528 0.0005505674 0.00012444565 -0.00014622128
000170 f3 2b 1a b9 ed 5f 9a 39 37 0a 82 39 22 44 31 36
       -0.00014702957 0.0002944464 0.00024803143 2.6414714e-06
000180 8b 0b 80 39 cf af 15 39 0d ca 92 37 9f a4 a2 39
       0.00024422663 0.00014275241 1.7498644e-05 0.000310217
000190 5d 64 06 3a a6 07 dc b9 d8 20 fb 38 07 2b 2f b8
       0.00051266496 -0.00041967368 0.0001197473 -4.1763324e-05
0001a0 a1 be 8f 39 fa c3 82 39 e6 e1 e9 b8 1b 26 85 38
       0.00027417115 0.00024941546 -0.00011152383 6.349032e-05
0001b0 6e 08 a8 b8 b3 b1 1a 3a 93 7a 7e b9 88 f4 ee b5
       -8.0124344e-05 0.0005901113 -0.0002426899 -1.780355e-06
0001c0 88 88 1b ba c3 9c 29 39 ca 57 81 3a 17 ba 02 37
       -0.00059331255 0.00016175494 0.0009868082 7.791931e-06
0001d0 0c 17 20 38 49 21 56 39 52 2a 0b 39 63 bd 57 b8
       3.8168437e-05 0.0002042103 0.00013271839 -5.1436375e-05
0001e0 8a fd 6e b9 36 d8 78 39 72 c0 56 3a 67 36 ba 38
       -0.000227919 0.00023731668 0.0008192129 8.8793044e-05
0001f0 74 69 51 38 14 a9 41 b8 19 96 0f b9 aa 21 17 b9
       4.9927694e-05 -4.6172252e-05 -0.00013693458 -0.00014413023
000200 16 28 5b 38 f3 ed 70 39 a4 a1 13 b7 46 4e 78 b7
       5.2251e-05 0.00022976827 -8.799518e-06 -1.4800176e-05
000210 88 93 73 b9 66 95 0e b9 da 8d 3f 39 3b 8d 59 b9
       -0.00023229246 -0.0001359783 0.00018268023 -0.00020747345
000220 31 d3 ab b9 45 62 97 3a 12 1e 17 38 ec d0 b9 b9
       -0.00032773011 0.0011549672 3.602921e-05 -0.0003544161
000230 15 a8 57 39 9e 92 3a 3a d3 91 0c b9 48 78 3b 38
       0.00020566613 0.00071171846 -0.00013405764 4.4696295e-05
000240 5d 7e eb 39 10 d8 a4 39 00 33 30 3a be 10 31 b9
       0.0004491684 0.00031441497 0.0006721467 -0.00016886272
000250 55 f6 be b9 f2 48 b1 b9 9d 1e 05 b9 49 72 20 b9
       -0.00036423156 -0.0003381442 -0.00012695273 -0.00015301364
000260 b6 8c a9 38 70 81 cf b6 a1 b6 7b 3a 57 b2 0f b9
       8.0847574e-05 -6.1841492e-06 0.0009602104 -0.0001370398
000270 45 af 9d b8 6e 10 ac 39 5e 9c 86 38 c2 d5 57 b8
       -7.51899e-05 0.00032818638 6.4187436e-05 -5.1459072e-05
000280 3b 73 5e 39 ed b3 2c ba 50 c6 7f 38 cc d9 34 b9
       0.00021214497 -0.00065880903 6.098143e-05 -0.00017247273
000290 7a d7 ee b6 df ea a4 38 31 d7 31 3a 77 ff bd b9
       -7.1180375e-06 7.8638775e-05 0.000678408 -0.00036239225
0002a0 8a 87 aa b9 af ab 34 39 f1 a0 43 b9 28 d6 f8 b9
       -0.0003252591 0.00017230095 -0.00018656605 -0.00047461805
0002b0 13 f0 b8 39 38 23 05 b7 61 29 7d 38 1e 54 32 b8
       0.00035274084 -7.935618e-06 6.0358438e-05 -4.2516847e-05
0002c0 b8 13 ea b6 d7 e6 72 b9 bc 46 fc 38 1b d7 4c 3a
       -6.976039e-06 -0.00023164913 0.00012029472 0.00078140356
0002d0 a4 dd 6b b9 45 f8 23 38 ce 75 9a b8 70 83 1a b9
       -0.00022493914 3.9093447e-05 -7.365235e-05 -0.00014735549
0002e0 96 62 a5 b8 cf d7 45 ba e0 9d 55 b6 7e b2 8d b8
       -7.886176e-05 -0.00075471116 -3.1831369e-06 -6.756651e-05
0002f0 25 68 39 b9 4e 61 36 39 b9 d7 fe 38 e9 4a 4f 38
       -0.00017681772 0.00017393121 0.00012151845 4.942241e-05

feat.4.weight f4 [192]
000000 e4 85 85 3f d8 77 87 3f c0 6d 84 3f 55 84 81 3f
       1.0431485 1.0583448 1.0345993 1.011851
000010 41 aa 77 3f 39 8d 83 3f 15 49 72 3f fb ad 82 3f
       0.9674416 1.0277473 0.94642764 1.0209345
000020 f3 26 87 3f f3 e1 84 3f e3 db 86 3f f4 b5 89 3f
       1.0558761 1.0381454 1.0535854 1.0758653
000030 b2 d2 80 3f 66 93 80 3f 77 4c 7a 3f 71 18 81 3f
       1.0064299 1.0044982 0.97772926 1.0085584
000040 51 37 83 3f ed 0b 87 3f ce e6 7c 3f f2 07 87 3f
       1.0251256 1.0550514 0.9878968 1.05493
000050 62 4d 76 3f 1f fe 86 3f eb d3 7e 3f 57 59 7c 3f
       0.96211827 1.0546302 0.9954211 0.9857382
000060 13 d6 7c 3f eb 84 83 3f cb 3a 87 3f bd 69 84 3f
       0.9876415 1.0274938 1.0564817 1.0344769
000070 78 b7 83 3f 7f c2 84 3f 2e 96 64 3f 33 2d 81 3f
       1.0290365 1.0371855 0.89291656 1.0091919
000080 e8 39 82 3f 94 34 8a 3f 4d 23 88 3f 48 bc 82 3f
       1.0173922 1.0797296 1.0635773 1.0213709
000090 a6 9c 80 3f 4d e0 84 3f 66 b3 7a 3f ec 5e 86 3f
       1.0047805 1.0380951 0.9792999 1.0497718
0000a0 21 43 83 3f 69 5d 83 3f de a0 80 3f de 5d 85 3f
       1.0254861 1.0262882 1.0049093 1.0419271
0000b0 a2 ca 7e 3f 9c d5 87 3f 07 a0 83 3f 6a 1d 86 3f
       0.99527943 1.0612063 1.0283211 1.0477726
0000c0 ce b1 88 3f 6e d4 84 3f 26 ca 88 3f d7 7f 88 3f
       1.0679262 1.0377328 1.0686691 1.0664014
0000d0 a6 8b 78 3f da b9 85 3f dc 40 84 3f 28 c9 88 3f
       0.97088087 1.0447342 1.0332294 1.0686388
0000e0 a9 29 84 3f 8c 11 89 3f 6c ac 82 3f 0c 25 86 3f
       1.0325214 1.070848 1.0208869 1.0480056
0000f0 50 70 82 3f 7a ec 89 3f dc 7a 85 3f 7c 52 83 3f
       1.0190525 1.0775292 1.0428119 1.0259547
000100 2d 2a 82 3f 15 88 82 3f 6e b5 82 3f 16 a1 82 3f
       1.0169121 1.0197779 1.0211618 1.020541
000110 4a e2 78 3f 41 77 89 3f 59 b7 80 3f 1e f1 87 3f
       0.9722029 1.0739518 1.0055953 1.0620458
000120 93 18 81 3f 0f c5 82 3f b4 c1 85 3f a1 50 83 3f
       1.0085624 1.0216388 1.0449739 1.0258981
000130 59 4a 86 3f 4e 8a 81 3f 05 9c 83 3f fd af 84 3f
       1.0491439 1.0120332 1.0281988 1.0366207
000140 e0 e1 84 3f 03 5d 80 3f 6c 06 85 3f a0 2c 85 3f
       1.0381432 1.0028385 1.0392585 1.0404243
000150 a7 c1 82 3f bd df 82 3f e9 1e 7c 3f 6e 31 77 3f
       1.0215348 1.022453 0.98484665 0.965598
000160 b2 60 81 3f 6a 96 8a 3f 08 82 84 3f d4 35 85 3f
       1.0107634 1.0827153 1.0352182 1.0407052
000170 5c 39 82 3f 68 f3 82 3f f0 ab 8a 3f 5b bf 83 3f
       1.0173755 1.0230532 1.0833721 1.0292772
000180 40 22 80 3f 66 14 87 3f 70 88 87 3f 34 bf 86 3f
       1.0010452 1.05531 1.0588512 1.05271
000190 0a 4d 86 3f 08 c2 8a 3f 78 78 85 3f 8c d7 82 3f
       1.049226 1.0840464 1.0427389 1.022203
0001a0 d4 44 7c 3f 1e 6a 88 3f 46 f4 83 3f 31 8b 80 3f
       0.98542523 1.0657384 1.0308921 1.0042478
0001b0 8d 46 85 3f b1 39 83 3f 9f ce 85 3f 9f 4f 82 3f
       1.0412155 1.0251981 1.0453681 1.0180548
0001c0 85 86 85 3f 87 a6 85 3f 1c 85 88 3f 5d 45 52 3f
       1.0431677 1.0441445 1.0665622 0.8213709
0001d0 7c 4c 7a 3f 64 32 81 3f 5c 76 6d 3f 3b b8 84 3f
       0.97772956 1.0093503 0.9275873 1.0368723
0001e0 9a d4 7c 3f ce 84 7a 3f 7d 11 87 3f 22 0d 84 3f
       0.98761904 0.97858894 1.0552212 1.0316508
0001f0 f0 3e 86 3f 58 ca 6f 3f 94 eb 77 3f 08 7f 86 3f
       1.0487957 0.9366813 0.9684384 1.0507517
000200 37 ba 87 3f e9 2f 7d 3f a1 d8 6f 3f 45 4b 83 3f
       1.0603703 0.9890123 0.93689924 1.0257345
000210 c0 f7 84 3f 09 6e 84 3f cf 6e 6e 3f 8e d9 80 3f
       1.0388107 1.034608 0.9313783 1.0066392
000220 d2 79 80 3f e5 ee 8a 3f 22 04 79 3f c7 3f 83 3f
       1.0037177 1.0854155 0.9727193 1.0253838
000230 f9 23 80 3f b2 15 87 3f 86 42 84 3f 47 d2 89 3f
       1.0010978 1.0553496 1.0332801 1.0767297
000240 52 0d 8b 3f 98 25 84 3f c6 fb 86 3f f1 0b 86 3f
       1.086344 1.0323973 1.0545585 1.0472394
000250 e4 bc 81 3f 7d 3d 88 3f 8d bd 83 3f 97 1e 81 3f
       1.013577 1.0643765 1.0292221 1.008746
000260 03 dc 85 3f 8f ed 75 3f 27 f4 87 3f 00 73 6b 3f
       1.0457767 0.9606561 1.0621384 0.9197235
000270 ac 83 86 3f 51 46 87 3f a2 5f 81 3f d0 38 73 3f
       1.0508933 1.0568334 1.010731 0.95008564
000280 78 24 80 3f f1 26 75 3f e7 84 77 3f 9b 52 87 3f
       1.0011129 0.95762545 0.9668717 1.0572084
000290 c0 2b 88 3f 29 84 7b 3f b8 ec 80 3f 20 4f 86 3f
       1.0638351 0.98248535 1.0072241 1.0492897
0002a0 f3 17 82 3f 41 72 7f 3f ec b7 82 3f c4 27 82 3f
       1.0163559 0.9978371 1.0212379 1.0168386
0002b0 17 5f 7f 3f cd ce 83 3f fe 9a 87 3f e1 4c 85 3f
       0.9975447 1.0297486 1.0594175 1.0414087
0002c0 7b de 81 3f 07 3e 71 3f af 7b 84 3f 79 25 86 3f
       1.0146021 0.9423527 1.0350245 1.0480186
0002d0 61 39 85 3f 1b a9 87 3f 0d fd 89 3f da b3 87 3f
       1.0408136 1.0598482 1.078035 1.0601761
0002e0 6a b3 85 3f a6 7d 82 3f 7a 03 7a 3f 31 bb 86 3f
       1.0445378 1.0194595 0.97661555 1.0525876
0002f0 cc 4d 83 3f ca 56 86 3f 52 a2 84 3f 0b 49 81 3f
       1.0258117 1.0495236 1.0362036 1.0100416

feat.4.bias f4 [192]
000000 2a 79 fe 3b 79 3a ce 3c 03 34 9a 3c 1c fb f9 3b
       0.0077659087 0.025174366 0.01882363 0.0076288115
000010 a9 af 1e bc be 99 83 3c 7f ec f1 3b 10 7c c3 3a
       -0.009685435 0.01606452 0.007382929 0.0014914293
000020 8e 0a 2a 3b 8e b6 87 3c 7a 87 22 3c 29 be 02 3d
       0.0025946232 0.016566541 0.009919995 0.031919632
000030 66 57 87 3c 6c eb 1f 3b fa 7a 03 3c 11 71 67 3c
       0.016521167 0.0024401797 0.008024925 0.014126078
000040 81 72 45 3c 82 37 a3 3b 74 f3 c3 b9 04 1d 9a bb
       0.012051226 0.0049809823 -0.00037374685 -0.004703166
000050 cd e0 76 3c 66 fd 0f 3c ac c8 28 bb de 8d 48 3c
       0.015068245 0.008788442 -0.0025754375 0.012240855
000060 1d 97 0e bb 70 1f af 3c b6 ba b2 bb df 73 8b 3c
       -0.002175755 0.021377295 -0.0054543866 0.017023025
000070 94 0f c2 b8 3f ec 07 3c 3a ef df 3b ab b9 a3 3b
       -9.2535425e-05 0.008296072 0.006833938 0.0049964986
000080 f0 b3 ca bb 90 86 8c 3c 60 a6 bb 3c 35 b8 ba 3c
       -0.006186001 0.017154008 0.022906482 0.022792915
000090 5b 4d 4a 39 8d f2 b0 3c 11 77 6f ba ff 38 31 3c
       0.00019293038 0.021600032 -0.0009134869 0.010816812
0000a0 74 30 b8 3b cc 7d 0c 3b a4 bb 0d 3c 91 8b a8 3b
       0.0056210104 0.0021437285 0.008650694 0.0051435907
0000b0 01 ed a8 3a 0c 7b d9 3c 61 9b 6a 3a a8 c5 82 3c
       0.0012888015 0.026547931 0.0008949545 0.01596339
0000c0 79 9a 24 3b 06 e0 c0 3c 36 16 fe 3a c0 1d 0f 3c
       0.0025116487 0.023544323 0.0019385281 0.00873512
0000d0 4f f8 dd bb 73 dc c5 3c c4 1a 7c 3c 8b 85 e3 3b
       -0.0067739855 0.02415297 0.015387241 0.00694341
0000e0 60 6a 5a 3a aa e0 94 3b 4e a4 9b 3b 33 6e 56 3c
       0.0008331891 0.0045433836 0.0047498113 0.013087797
0000f0 12 7f 67 39 a7 87 b0 3c 53 87 c2 3b 8b b9 ce 3c
       0.00022077214 0.02154906 0.005936542 0.025234958
000100 ef 36 0f 3c b0 d3 34 3a 77 02 cf 3b 31 08 92 3c
       0.0087411245 0.0006897999 0.0063174325 0.017826172
000110 a5 5b b8 3b 40 36 9c 3c 2b 7b db 3b 8c b0 61 3b
       0.0056261593 0.019068837 0.0066980324 0.0034437506
000120 2f c1 96 3b 8c 64 83 3c cb d1 2b 3a 6b ab 95 3c
       0.004600666 0.016039155 0.0006554394 0.018270215
000130 87 c7 69 3b d5 68 08 3c 61 12 ba 3b 02 49 d2 3c
       0.0035671906 0.008325775 0.0056784605 0.025669578
000140 50 75 61 3a 15 d7 43 bc 58 c5 0b 3b 19 5b 01 3c
       0.000860055 -0.011953135 0.0021327343 0.0078952545
000150 18 90 6d 3c 1e be 12 3b 43 24 a4 3c 02 38 6f 3c
       0.014499687 0.002239115 0.020036822 0.014600756
000160 a1 68 32 3c 20 b1 6f 3b 09 66 c8 3b 0c 68 13 3c
       0.010889203 0.003657408 0.006115679 0.008996975
000170 0b 2f 1d 3b 5f e9 8d 3c 02 7e 08 3b a8 f9 8e 3b
       0.0023984339 0.017323194 0.002082706 0.0043632574
000180 66 65 9b 3a 70 86 04 3c c0 d2 a7 3c a6 f9 16 3c
       0.0011855781 0.008088693 0.020486236 0.009214794
000190 f5 ae 83 3b 37 1d 55 3b 71 62 77 3a 85 84 bc 3c
       0.0040186592 0.0032518634 0.0009436971 0.023012409
0001a0 bf db 98 3b a9 c9 49 3b 90 3b d5 3b 06 38 1f 3b
       0.0046648677 0.0030790365 0.0065073445 0.0024294867
0001b0 da 09 a7 3b 69 ac 8c 3b 8f 2c 81 3a 3f d6 a6 3c
       0.00509761 0.004293014 0.0009855198 0.020365832
0001c0 16 df d8 3c ae 99 87 3b 89 83 22 3b c0 5e 31 bc
       0.026473563 0.004138193 0.002479764 -0.010825813
0001d0 b3 0b 12 3c 6e 94 8e 3c d0 74 aa 3b 9c 88 90 3c
       0.008913922 0.017404761 0.0052019134 0.017643265
0001e0 62 83 b4 3b 2f 09 75 bb 0a e2 97 3b 2b bb cc 3c
       0.005508826 -0.0037389507 0.0046351003 0.024991592
0001f0 c7 40 14 bb b6 f1 c7 3b c6 47 ea 3b 9c 8c 69 ba
       -0.0022621618 0.0061018122 0.0071496693 -0.0008909197
000200 1d 2f ab bb 56 c6 da bb d0 19 ec 3b d9 b8 a5 3c
       -0.005224122 -0.0066764755 0.0072052255 0.020229744
000210 50 b1 eb 3a c4 6f 71 3b 08 29 0f bc 7e 0d b4 3b
       0.001798192 0.00368403 -0.00873781 0.0054947725
000220 96 ab 30 3c f9 92 7b 3c 15 51 a3 3b 81 65 94 3c
       0.010783097 0.015354865 0.004984031 0.018114807
000230 d3 15 5f 3b 7a a5 ad 3c 36 3f 1a 3c 08 7d 5f 3c
       0.0034040108 0.02119707 0.009414485 0.01364065
000240 f3 04 ab 3c 91 2a c1 3b 07 1b 63 3c d1 c9 22 bb
       0.020876383 0.005894967 0.013861424 -0.002483953
000250 3e 2a 21 3b bb 4b 63 3b b0 03 88 3b be f2 89 bb
       0.0024591829 0.003468259 0.00415083 -0.0042098453
000260 31 0c 80 3b ba 81 94 3b 74 db 1d 3c 40 3b 9d bc
       0.0039077033 0.004532066 0.009634841 -0.019193292
000270 f0 4d c7 b9 ec ea 29 bb 59 69 a4 3c 25 e5 17 bc
       -0.00038014306 -0.0025927378 0.020069765 -0.009270941
000280 fa 24 05 3c 80 b1 33 3c 6d 6b d1 3c 6a 82 a5 3c
       0.008126492 0.010967612 0.02556392 0.020203788
000290 85 05 47 3b e6 72 b0 3b af 18 69 bc 42 91 c4 3b
       0.003036828 0.0053847907 -0.014227076 0.0059987614
0002a0 51 8a 3f 3b 76 c4 80 bc 00 46 9c bb 8d 30 06 3c
       0.002922673 -0.01571868 -0.004769087 0.008190286
0002b0 a7 b1 18 3c 79 b7 17 3b 60 7d 29 3b 74 56 6b ba
       0.009319699 0.002315013 0.0025862083 -0.0008977421
0002c0 82 ab bc 3b f5 71 cb bb 63 d4 cd 3b 28 41 24 3b
       0.00575775 -0.006208653 0.006281422 0.002506325
0002d0 50 85 89 3b 14 56 c8 3b fa 7a 0e ba ba 1f 72 3b
       0.0041968003 0.006113777 -0.0005435195 0.003694518
0002e0 97 5d 22 3b be e7 b9 3c 10 ba df 3b 20 59 65 3b
       0.0024775022 0.022693511 0.0068276003 0.003499575
0002f0 21 8e 53 3c 7d d5 c1 3c 30 8e 2f 3c 2f 96 3f 3c
       0.012912304 0.02366137 0.0107150525 0.011693521

feat.4.running_mean f4 [192]
000000 38 a0 af bd 29 c4 3e be 11 20 67 be 62 ff 83 bd
       -0.08575481 -0.18629517 -0.22570826 -0.06445195
000010 1b 3a e7 bc fd f1 b5 bd 5e 79 6c be 5d 52 b8 3b
       -0.028225949 -0.08884046 -0.23093173 0.005625053
000020 89 cb 7a bd 78 0e 16 be 04 75 a6 3c fb aa 47 be
       -0.061229263 -0.14653957 0.02031947 -0.19498818
000030 97 0a 4a be ca b3 6a be a0 00 a6 bc 36 aa 87 be
       -0.19730602 -0.22920147 -0.02026397 -0.26497048
000040 ad 30 d0 bd 48 9a a7 bd df 95 0f bd 96 be 47 bd
       -0.10165534 -0.08183724 -0.035055038 -0.04876574
000050 de 98 45 be 7e dd 5a be ba b7 a3 bd fa 2f 30 bc
       -0.19296595 -0.21373555 -0.079940274 -0.010753626
000060 40 d2 94 bd 88 a0 e0 bd f2 92 06 bd 6f 2d 2a be
       -0.072666645 -0.10968119 -0.03285498 -0.16618894
000070 94 c8 eb bd 20 3d 8b be f9 e0 98 3d fd 87 69 bd
       -0.115128666 -0.27195072 0.07464785 -0.057014454
000080 2b fe f8 bc 06 0d 0a be 77 5c cf bd 7c 80 07 bd
       -0.030394634 -0.1348153 -0.10125058 -0.033081517
000090 82 45 43 bd b5 e6 e8 bd 1a fa 9b bd 07 31 09 be
       -0.04767371 -0.11372129 -0.076160625 -0.13397609
0000a0 f0 de 98 bd a8 6a 04 be c4 c5 6b bc f0 aa 8d bd
       -0.07464397 -0.12931311 -0.014390413 -0.06917369
0000b0 52 1a 39 bd 3c d7 56 be 4c 81 25 bd 31 50 0c be
       -0.045191117 -0.20980543 -0.04040651 -0.13702466
0000c0 f9 e1 7e 3b b1 6f e4 bd c2 f7 59 bc c0 7d 9f bc
       0.0038892014 -0.11154116 -0.013303699 -0.019469142
0000d0 c4 19 b3 bc 98 d2 35 be 66 44 32 be 6c 7a d4 3c
       -0.021862872 -0.17756116 -0.17408904 0.025937282
0000e0 f9 9b 3b bd e9 7d b1 bd d6 11 8a be 69 74 1f be
       -0.045803044 -0.086665936 -0.26966733 -0.1557175
0000f0 95 a3 00 be 14 89 27 be 8a c2 a7 bd e8 0a ad bd
       -0.12562402 -0.16360885 -0.08191402 -0.08449346
000100 4f 12 81 be 20 76 6d bd b2 24 ad bd 1b 3d f2 bd
       -0.2520928 -0.05797398 -0.08454265 -0.11828061
000110 e4 3c 95 3e 6c e0 56 be 0f 02 e1 bd 14 e7 13 bd
       0.29148018 -0.20984048 -0.10986721 -0.036109045
000120 89 dc 64 be 3b 02 39 be 89 cf 92 bc 01 df ac bd
       -0.22349752 -0.18067257 -0.017921226 -0.08440972
000130 2f 79 b3 bd 53 7a 3b be 25 ec d1 bd 10 c7 f4 bd
       -0.08763348 -0.18308382 -0.10250119 -0.11952031
000140 07 38 62 bd 6b af 36 3d 54 18 66 bd c6 01 69 bd
       -0.055229213 0.044600885 -0.056175545 -0.056886457
000150 01 71 ca bd 39 f2 be bd c2 69 c6 bd a3 70 a9 3c
       -0.09884835 -0.09323544 -0.096881405 0.020683592
000160 fc c1 94 be fe 58 8c bd 0a 04 d1 bd 50 ba c5 bd
       -0.29054248 -0.068529114 -0.102058485 -0.09654677
000170 f7 04 15 bd 5a 95 b2 bd a3 a3 0e bd ea cf a3 bd
       -0.036381688 -0.08719893 -0.034824025 -0.07998641
000180 a7 50 9a be 3b 05 23 bd 62 93 01 be 6c 35 3c be
       -0.30139658 -0.03979991 -0.12653878 -0.18379754
000190 22 0f a5 bd 48 a9 d2 bc 40 ea 39 bd 4e 72 9e bd
       -0.08059527 -0.025715485 -0.045389414 -0.07736646
0001a0 8c 6e a2 3e c7 ff 9a bd 5e 0d e4 bc f9 c0 24 bd
       0.31724966 -0.07568317 -0.027838405 -0.040223096
0001b0 47 8b 87 bd e0 81 6f bd 76 0d b1 bd 64 08 ea bd
       -0.06618362 -0.058473468 -0.086451456 -0.11427382
0001c0 8d cf fb bd c0 80 14 bc 02 9a 57 bc e9 08 42 3c
       -0.122954465 -0.0090638995 -0.013159277 0.011842945
0001d0 b0 f3 73 be 0f e2 1d be 57 d1 54 be 94 76 ed bd
       -0.23823428 -0.15418266 -0.20782982 -0.115948826
0001e0 ab 4a 9c 3e ee ac 1b bd 0b 7c 9d bd 30 79 1f be
       0.30525717 -0.038006715 -0.07689675 -0.15573573
0001f0 ac d1 1c bd fd 9b 25 be d8 bb 5d be b6 0b 87 bd
       -0.038285896 -0.16172786 -0.21653688 -0.065940306
000200 2d de a3 bd 3d 39 0f 3f 8c 9f 78 be 92 09 09 be
       -0.08001361 0.55946714 -0.24279612 -0.13382557
000210 55 4d 37 3b 64 3c 92 bd c2 38 93 bd 48 67 26 be
       0.0027969677 -0.07140425 -0.0718856 -0.16250336
000220 e7 99 e1 bd 20 73 e6 bd d6 5c 90 be 3f 87 5c be
       -0.11015683 -0.11252427 -0.28195828 -0.21535967
000230 21 23 72 bd ee 43 1c be 50 cd c2 bd 7f ca 34 be
       -0.059115533 -0.15260288 -0.095118165 -0.17655371
000240 5b 45 21 be 0e 75 4c be 92 7d 4a be 29 0b 55 bd
       -0.15749113 -0.19966528 -0.19774464 -0.052012596
000250 8d 5c ab bd 15 a1 b0 bd 86 f7 7f bd 16 4d 50 bd
       -0.08367262 -0.08624474 -0.062491916 -0.050854765
000260 e1 5d 65 bd 21 88 d3 bd 39 f7 1a be e3 f3 62 3e
       -0.055997733 -0.10328699 -0.1513337 0.22163348
000270 7d c7 88 bd e6 ab bb bd ca d3 17 be d9 45 88 bc
       -0.06678674 -0.091636464 -0.14826885 -0.016634868
000280 96 9e c2 bd b1 3d 5c be 2a 81 9c bd 39 32 0d be
       -0.09502904 -0.21507908 -0.076418236 -0.1378869
000290 a6 1a 4c bd cd b1 10 3e 3b 5a 48 3d 50 3e 99 bd
       -0.0498301 0.14130326 0.048914175 -0.07482588
0002a0 05 05 b2 bd 9f 46 81 3e ab 7b c3 bd 7b 89 c2 bd
       -0.08692364 0.25249192 -0.09545072 -0.094988786
0002b0 39 72 2b be ec e5 82 bd 69 52 74 bd 4a 62 b7 bd
       -0.16742791 -0.0639151 -0.059648905 -0.08954294
0002c0 e1 72 dc be 42 1e 8d bd 2b 72 0f be d4 63 80 bd
       -0.43056396 -0.06890537 -0.14008395 -0.06269041
0002d0 47 49 36 bd 8f 48 5e bd 5d 4c e7 bc d9 2f 46 bd
       -0.044503476 -0.054268416 -0.028234655 -0.048385475
0002e0 75 1a ac bd 9c c4 1e be 14 cc 3e 3e c4 2e 44 bc
       -0.08403484 -0.15504688 0.18632537 -0.01197404
0002f0 54 f4 1d be 3b 5a a6 bd 41 08 c8 bd 54 b1 b2 bd
       -0.15425235 -0.08122679 -0.09767199 -0.08725229
